NeuralNetworks/CNN/mnist_net.pth (torch, 346900 bytes, 10 tensors)

conv1.weight f4 [16, 1, 5, 5]
00000000: 8712 a9bd 8e1c 6e3c 58c6 6f3c cf9e 1a3e
00000010: cda4 813e c32b b53c e794 d23d c513 633c
00000020: 911a 3f3e 937a 063e 2b86 a53d d3f0 dcbd
00000030: f131 f7bc fe9a 873d 04ba de3d 2f00 2cbd
00000040: 8c88 cbbd 02d8 6fbd 2a43 d1bd ad60 18be
00000050: 2751 dabc a0b8 bfbd f44e eebd ffdc 2fbe
00000060: 1858 cebc c1fb db3c e6ad 6bbc da2c 373d
00000070: 67a2 d2bd af98 7f3d e5a7 84bd a099 c2bd
00000080: 3e6b 1bbd d13d 773d af03 a3bd 45ab 1bbd
00000090: 91e2 97bb 476d 2cbc bcbb f7bd f97a 05be
000000a0: 17f0 61bc 168e 8bbd bca4 27be 5ff9 2a3c
000000b0: 7013 9d3a 87c1 03be 69c4 4dbd 1adc 6abc
000000c0: e260 1b3d 4f2f ea3d 2dc7 fabd fd3d c8bd
000000d0: 5518 7abc a335 3b3c 3689 28be df80 86bd
000000e0: 2b89 513d 210e 05be 8431 18be f8db 19bd
000000f0: bc9d a4bd 74ac dd3d 441d 4eb9 01a3 813b
00000100: ce2f 873d abf7 753c 5f37 293e 0255 173e
00000110: 0be7 b1ba f099 4a3e be62 30bd 0a5c 0f3d
00000120: 29b8 063e 37a7 643d 2107 063c 0e1b dfbd
00000130: 82e0 01be 4227 3ebb eeb1 0b3e 5b9b 503d
00000140: 88ec 35bd 6b10 63bc ecc1 5cbd cddd 443e
00000150: c51e 1ab9 888c d8bc 3667 a5bd 5948 1f3e
00000160: 0827 903d 5909 33be 1ba0 0a3c 89ea 1b3e
00000170: 8fa3 383e b953 9c3d abd1 97bd b037 033e
00000180: 78de 0e3e d8d3 f4bb e860 11be b63a f9bd
00000190: 9104 1cbe d7cf 223d 3b57 e1bc 8c13 00be
000001a0: 9a22 10be a0f8 19be 314e 7f3b 60c2 babd
000001b0: 14c9 53bc 601f 2cbe ee88 24be 823a 01be
000001c0: ea9c eebd 0ccc 30be ca9e 0e3d bbf3 d4bc
000001d0: 4d53 5abd 4a4a b0bd 390f e43d 6e45 013d
000001e0: 6e94 123e 9e3f cd3d a685 493e ee76 033e
000001f0: 299b 6f3d d285 0bbe 1591 0abe 3b8a a83d
00000200: f111 2cbd 58e8 09bb b8f8 36be 0be6 c9bd
00000210: 628d 03bb 4ea7 aabc 6f49 babd 070c bfbd
00000220: d7ea 34be 948d 223d c5e8 403d 8837 8dbd
00000230: d72b 22be 5bc7 11bd cbba 873d fc8d af3c
00000240: 46fe 0f3d bca8 28be 93be 98bd 3931 333b
00000250: cf61 673b 5b32 f33d 3056 4e3c 4158 993d
00000260: c45d 0abd 1599 44be 7a20 01be 774d 13be
00000270: 01d4 29be 9786 23be ee0a 13be 3961 30be
00000280: ce0b 2a3d 0d89 3abe b1da 42bd 05d6 23be
00000290: 02b3 05be 2cb4 f0bd 0ee5 3bbe bb19 1cbe
000002a0: fbc5 b5bd 2601 fcbd 2559 e0bd 9093 edbd
000002b0: 761e 80bd a2f3 9abc 0b1c fbbd 4007 11be
000002c0: bb3d 98bd d6b9 7b3e 9171 833e 9702 0c3d
000002d0: 7486 06be 20c3 5b3d 45f7 913e 922c ca3d
000002e0: 3de1 febd cd4b 10bd 1841 093e 3ae5 8c3e
000002f0: 0edb 5f3d d172 b4bd f457 683d edd0 7f3e
00000300: d391 2f3e 60a3 a8bd e093 28be 890a 103e
00000310: eaf8 5b3e 2560 113e 53a8 1dbe cf40 38be
00000320: 402d 3bbd 2255 1cbe b111 d0bd 2ca5 663d
00000330: 6a94 163e 85a0 e7bd 02c2 1fbd 06fd 313c
00000340: 6c2e 113e 4978 7b3e a7ed 2ebd 5dd0 2bbe
00000350: e881 d9bc fc74 2f3e 6a37 013e 268f eebd
00000360: dfc2 4abe 3541 37be 05b9 4e3e d76f 843e
00000370: 37ce 4dbe 56fb 00be 5fd5 19bd 357e dc3d
00000380: b2dc 823e 4b88 833c 13b2 463d 9c9f 21bd
00000390: 7f28 7a3b a0fa 86bc 6907 493d d619 cbbd
000003a0: e879 77bc 00c1 253d 5701 173d 10fc 86bd
000003b0: 1407 e23d 7d2d 7f3d 9cd5 063c ff75 ff3d
000003c0: 4287 0f3e 3108 c83d 4e2e 66bb 6b84 a53d
000003d0: 5c5c c2bd f412 993d 1783 0abe d055 02be
000003e0: 57a4 0ebe f684 903c 95b0 c8bc c5a2 0bbe
000003f0: 3c93 4ebe a8b2 20bc 8b04 20b8 c540 93bd
-0.08255487 0.014533175 0.014634691 0.15099643 0.25321046 0.022115594 0.10282307 0.013859694
0.18662478 0.13132696 0.08082231 -0.10788121 -0.030175181 0.06621359 0.108753234 -0.041992363
-0.099381536 -0.05855561 -0.10217889 -0.14880629 -0.026650025 -0.09361386 -0.11636153 -0.17174147
-0.02518849 0.026853444 -0.014384722 0.04472051 -0.10284882 0.06240147 -0.06477336 -0.09501958
-0.03794407 0.060361687 -0.07959687 -0.038005132 -0.004635163 -0.010524101 -0.12096354 -0.13035192
-0.013790152 -0.0681421 -0.16371435 0.010435431 0.0011983942 -0.12866794 -0.05023614 -0.014334703
0.03793419 0.11434805 -0.12245021 -0.09777448 -0.01526459 0.011426362 -0.16458592 -0.06567549
0.051156204 -0.12993671 -0.14862639 -0.037563294 -0.08037898 0.108239084 -0.00019656593 0.003956199
0.06600915 0.015012662 0.16525029 0.14778522 -0.0013572884 0.19785285 -0.043062918 0.034999885
0.13156189 0.05582353 0.008180411 -0.10893832 -0.12683299 -0.0029015099 0.13642094 0.05092941
-0.044415027 -0.013858895 -0.053895876 0.19225235 -0.00014698047 -0.026434198 -0.080763265 0.15554942
0.070386946 -0.17484035 0.008461024 0.15226187 0.18031143 0.07633156 -0.07413038 0.12814212
0.13952053 -0.007471543 -0.14197123 -0.12169401 -0.15236117 0.039748993 -0.027507415 -0.12507457
-0.140757 -0.15036249 0.0038956518 -0.09119105 -0.012926359 -0.16808844 -0.1606786 -0.12619975
-0.11651023 -0.17265338 0.0348194 -0.025995126 -0.053302098 -0.086079195 0.11135716 0.031560354
0.14314434 0.100219 0.19679889 0.12838337 0.05849758 -0.13625267 -0.13531907 0.0822949
-0.042009298 -0.0021043029 -0.17868316 -0.0985833 -0.0020073284 -0.02083173 -0.090960376 -0.09328466
-0.1766771 0.0396858 0.047096986 -0.06895357 -0.15837036 -0.03559051 0.06627425 0.021430008
0.035154603 -0.16470617 -0.07458224 0.0027342571 0.0035306101 0.11874839 0.012593791 0.07487536
-0.033780828 -0.19199021 -0.12610045 -0.14385019 -0.1658478 -0.1596931 -0.14359638 -0.17224588
0.041515164 -0.18216343 -0.04757184 -0.1599961 -0.13056567 -0.11753115 -0.18349096 -0.1524419
-0.088756524 -0.123049065 -0.10954503 -0.11600411 -0.0625581 -0.018915001 -0.12261208 -0.14162922
-0.07433649 0.2458261 0.25672582 0.034182157 -0.13137227 0.053652883 0.28508964 0.09871782
-0.124453045 -0.03522854 0.13403738 0.27518636 0.054652266 -0.08810962 0.056724504 0.24982043
0.17145471 -0.08234286 -0.1646266 0.14066519 0.21481672 0.14196832 -0.15396242 -0.17993473
-0.04569745 -0.1526685 -0.10159624 0.056309864 0.14705053 -0.113099135 -0.03900338 0.010863548
0.14177865 0.24557604 -0.04270711 -0.16778703 -0.026551202 0.1713447 0.12618795 -0.11648397
-0.198009 -0.17895968 0.20187767 0.25866577 -0.20098196 -0.12595877 -0.037557002 0.107662596
0.25559002 0.0160562 0.04850967 -0.039458856 0.003817111 -0.01647693 0.049079333 -0.09917037
-0.015104748 0.040467262 0.036866512 -0.06591046 0.11036506 0.06229924 0.008229639 0.12473678
0.1401644 0.097671874 -0.0035122815 0.08081897 -0.094902724 0.07474318 -0.1352657 -0.12728047
-0.13929878 0.017641526 -0.024498263 -0.1363631 -0.20173353 -0.00980822 -3.8151204e-05 -0.07190088

conv1.bias f4 [16]
00000000: f0e4 993d 4bb4 873c 4920 b63d c2bb b23d
00000010: e4c1 aa3c f244 293d 66fe 8f3c 7d65 e73d
00000020: 532c ed3d f8cf 4c3d 430c fe3d a2f6 3b3d
00000030: 78e0 133d 16db 8f3d c7a6 fd3d d7ff 743d
0.075143695 0.016565463 0.08892877 0.08727218 0.020844407 0.041325517 0.017577361 0.11298654
0.1158072 0.050003022 0.124046825 0.045889504 0.036102742 0.07024209 0.12385326 0.0598143

conv2.weight f4 [32, 16, 5, 5]
00000000: 1815 a23d b010 7cbc b1f6 03bd 4a3c 803d
00000010: f3ac 833d 305f 4dbb e221 ac3c 1e99 cfbc
00000020: 2422 49bc 58f4 7f3c 98c8 08bd 1e6e 38bd
00000030: d555 ddbc 426c 5f3b 1a58 adbc 454d 87bd
00000040: 5b0d f73c 9a02 16bc a678 1bbd 38fd 663d
00000050: d019 543d 0236 cbbc 917b 983d 743c 843d
00000060: 04ab 03bd b88d 71bd e583 773d fde9 603d
00000070: 76f0 54bd e9d7 47bd 578c 743c b1f9 7a3d
00000080: 4f5a 943d 1a0b 83bd 9e2c 6e3d 463b 813d
00000090: 0599 8c3d 850b 86bd 7cf2 a43c e846 203c
000000a0: ed30 20bd cb5b 5cbd 8b4e ffba 2b42 c93c
000000b0: 59a1 663d 6904 e13c 2732 2b3d 061c 26bd
000000c0: 447c 5d3d f5fd 903d 95cc 603d 07d9 6bbd
000000d0: c5af 663d 39ba 833d 5e4a f53b f113 b4bc
000000e0: 5720 31bd 33f0 a53d 06c8 613d c062 513d
000000f0: b74c ec3c 4786 8c3d ea67 043d ba61 a03c
00000100: f567 ddba 65d6 5a3d e8df 2abd bc7a 96bd
00000110: f1b6 90bb 2403 913d 457a fabb c863 1f3c
00000120: b907 213d 0c55 07bd b0da b3bc 26f4 3ebc
00000130: ef9a 11bd 3390 51bd 7d62 4e3d d3e1 303d
00000140: f9c6 1c3d 1f3c 54bd 79bb 2abd 80d1 bf3d
00000150: f8a5 bc3d df2a 3c3d 7eca 4a3c 22f5 a63c
00000160: 3cde 7e3d 9767 1fbc e57a 8a3d d930 073e
00000170: ec95 b23b 971c f83b 8ca7 20bd 7200 d83d
00000180: 686c 7cbc 8189 f53c fbd3 a53d 906a 0dbd
00000190: 7a9c 09bd 9270 98bd 47fe 7cbd 0ccd 0f3d
000001a0: 4c59 e93b 2505 1b3c 0a71 5a3d f264 9cbc
000001b0: 54a7 b33d 9730 bf3c ccf7 83bc 37bf d73d
000001c0: 7257 6bbd 1568 9abd 8dcb bebc 3ed0 173d
000001d0: d76a 463d 93ac 883c 8a9a b0bb 3f20 bf3c
000001e0: 323a 5fbc 597c 71bd 8ac2 6cbd e545 6bbb
000001f0: 7ac8 073c 0f8d ad3c d6e5 253d 7e74 1a3d
00000200: 6598 4fbd 6add 44bc 8711 8dbc aa46 a3bc
00000210: 07a5 4dbd 32c9 08bc 5e2b 153d bc84 afbc
00000220: 6f18 8c3c 2980 7c3d 9e4b 2fbd 8896 4f3d
00000230: 9752 99b9 b088 4bbc ed71 8dbd f300 95bd
00000240: ec93 4d3d 3cdf 8fbd b38d 143d 73fd 913a
00000250: 31f4 3dbd 08ec 873d 85e9 95bd 628e f93c
00000260: f8a1 603d fceb 063d 8022 763c f05a 9ebc
00000270: c059 02bc 89ee 5dbd e3c7 1a3d d2e0 803d
00000280: f3ab 23bd 3d86 a93c d7ff cd3b 704d 36bd
00000290: 632e 43bc 4319 81bc 1ba7 83bd e1cb 34bd
000002a0: 5f42 4fbc d01b 1cbd d3fa 39bc 40fa d6bc
000002b0: a2cf 11bd 4705 c7bc bb22 be3c 2f71 683d
000002c0: 869f 7cbd 5418 173d a0f3 36bd 3134 2e3d
000002d0: c664 773d f50c a5bd a046 28bd 1406 083d
000002e0: e288 b93d 616d 81bd 55e9 383d 0d7e 1d3d
000002f0: 5d18 e33d 61ef 513b 527e 313d c4aa 7f3d
00000300: 9e8a 523d 8790 63bc 0b9c 7fbc 4022 913d
00000310: 9122 d9bc 1493 e5bb 3672 60bd d3c6 c83c
00000320: 1d0a 05bc f131 143d 4752 ccbc 0ed5 23bd
00000330: 6cd4 1fbd 9d7d 98bc 23bc 993d f5ee c03c
00000340: ed84 973d 1172 62bd ee7a 64bd 4eea 513d
00000350: b417 45bd 928b 15bd a806 773d 13c8 a73d
00000360: 21c6 02bd d385 27bd 191f 903c 6238 35bd
00000370: ea98 8c3d 8f97 6dbd f8eb 023d 74e7 1a3d
00000380: b648 513d 4bf1 debc 73d4 30bb a71f 57bd
00000390: e403 633d 679e 5dbd 4b96 973d eb18 08bc
000003a0: 17e9 8f3c a34f 733d d33f 213c f7c3 01bc
000003b0: bd08 d13c 513d a93d de9d f0bc 40d2 8c3d
000003c0: a4d6 0cbd 14b0 b93d 3702 593d 33f5 37bc
000003d0: 323d d7bc 51e6 9c3d fdaa 44bd 4159 f0bb
000003e0: d2dc ddbc 9169 e9bc 90f8 47bd c56e 5537
000003f0: 71ab 843c d24e 57bd 83e7 833d e992 463d
0.079141796 -0.015384838 -0.032217685 0.06261499 0.06429472 -0.0031337254 0.02101225 -0.025341567
-0.012276206 0.015622221 -0.033394426 -0.04502689 -0.027018467 0.0034091626 -0.021160174 -0.06606535
0.030157736 -0.009155894 -0.037956856 0.056393832 0.05178243 -0.024806026 0.074454434 0.06456843
-0.032145515 -0.058973044 0.06042852 0.05491065 -0.051987134 -0.048789892 0.014926038 0.06127328
0.072437875 -0.06398602 0.05814802 0.06310134 0.06865124 -0.06545166 0.020135157 0.00978253
-0.03910916 -0.053798478 -0.0019478364 0.024567684 0.056306217 0.027467923 0.041795876 -0.04055407
0.054073587 0.070796885 0.054882605 -0.05758002 0.05631997 0.064320035 0.007485672 -0.021982165
-0.043243732 0.08102455 0.055122398 0.051119566 0.028845174 0.06861549 0.032325663 0.01957785
-0.0016891944 0.05342712 -0.04171744 -0.073476285 -0.0044163396 0.07080677 -0.00764397 0.00972838
0.039314006 -0.03304009 -0.021954864 -0.011654889 -0.035548147 -0.05116291 0.050386894 0.043184113
0.038275693 -0.05181515 -0.041682694 0.09366131 0.092113435 0.045939323 0.012377379 0.02038056
0.062223658 -0.009729288 0.067617215 0.13202228 0.005450001 0.0075717675 -0.039222285 0.1054696
-0.015406705 0.029972794 0.08097073 -0.034525454 -0.033596493 -0.07443346 -0.061765935 0.035107657
0.0071212407 0.009461676 0.05333046 -0.019091103 0.0877215 0.0233386 -0.01610937 0.10534518
-0.05745644 -0.07539383 -0.02329042 0.03706383 0.048441734 0.016683852 -0.0053895162 0.023330806
-0.013624715 -0.058956478 -0.057802714 -0.0035899815 0.008287543 0.021185426 0.04050239 0.03770875
-0.050682444 -0.01201568 -0.017220272 -0.019931156 -0.05020621 -0.00834875 0.03641831 -0.021425597
0.017101495 0.06164566 -0.042796724 0.050680667 -0.00029243968 -0.012422726 -0.06906495 -0.07275572
0.050189897 -0.070250005 0.036267947 0.0011138156 -0.046375457 0.06636816 -0.07319931 0.030463401
0.054841965 0.032939896 0.015022874 -0.019330472 -0.007955968 -0.054182563 0.037788283 0.06292881
-0.039958905 0.020693893 0.006286602 -0.044507444 -0.011912915 -0.015759116 -0.06428357 -0.044139747
-0.012650101 -0.03811246 -0.011351305 -0.026242375 -0.035598405 -0.024294509 0.02320992 0.056748565
-0.06167557 0.036888435 -0.044665933 0.042530242 0.06039884 -0.08059112 -0.04108298 0.03320892
0.090593114 -0.063196905 0.045144398 0.03845029 0.11088631 0.003203355 0.04333336 0.062418714
0.051401727 -0.0138894385 -0.015601168 0.07086611 -0.02650574 -0.0070060585 -0.05479642 0.02450887
-0.008120087 0.03618044 -0.024941577 -0.039998107 -0.03902094 -0.018614585 0.07506587 0.023551444
0.073984005 -0.055284563 -0.055781297 0.05124884 -0.04811831 -0.036510058 0.060309082 0.08192458
-0.03192723 -0.04089911 0.017592954 -0.044243224 0.068651035 -0.058005866 0.03196332 0.037818387
0.051094733 -0.027214667 -0.0026982098 -0.05252042 0.055423632 -0.054106142 0.07401713 -0.008306722
0.0175672 0.05940212 0.009841877 -0.007920257 0.025516862 0.08263648 -0.029372152 0.068760395
-0.034384385 0.09066787 0.052980628 -0.011227894 -0.026274297 0.07661117 -0.04801463 -0.0073348586
-0.027082834 -0.02849272 -0.048821032 1.272158e-05 0.01619503 -0.052565403 0.06440642 0.04847995

conv2.bias f4 [32]
00000000: 9bc1 bc3c 457e eb3b b682 5bbb d9d7 283c
00000010: 23ca d13a 6858 9d3c 0651 9d3b 90f9 f33b
00000020: 7233 5d3c 15a2 2b3c fd9d 123c 0ee9 ff3b
00000030: acbc 8a3b acfd 923c 1951 7d3c 8712 423c
00000040: 503d 2c3c 7eed 7d3b 9120 3c3b 6b20 013c
00000050: 5044 373c b1fc 37ba 1532 5fba 249f e03b
00000060: ae9d 5b3c 9e79 dc3a c4fc b83a a615 9b3c
00000070: d8e0 4e3a 6a60 933c a04b 833c 848b c83c
0.023041537 0.0071866834 -0.0033494658 0.010305368 0.0016005676 0.019207194 0.0048009185 0.0074455217
0.013501035 0.010475655 0.0089488 0.0078097647 0.004233917 0.017943226 0.01546123 0.011845238
0.010512665 0.0038746293 0.0028705935 0.007881264 0.011185721 -0.000701855 -0.00085142377 0.0068549085
0.013404293 0.0016820913 0.0014113416 0.018931221 0.00078917807 0.01799031 0.016027272 0.024480589

fc1.weight f4 [120, 512]
00000000: b89c 893d fe8c 3cbd 8c36 4a3d e6df 8cbd
00000010: b06a 8bbd 53b5 e33a ea78 adbd b0fb 01bd
00000020: 3e94 73bd 094d bdbd c918 ba3d d1a3 cabc
00000030: dbc9 a33d a83b 663d 3595 a83d d9c2 373d
00000040: c610 3abd 024b b2bb ee6c 103c 79c6 793c
00000050: 92c1 9abd b637 6a3d 8a78 c03d 4ed4 dfbc
00000060: 63de 3fbd 53c3 863d cc9d 8fbd 6127 b73b
00000070: 75d8 e6bb 7e8c b9bd 256f 0cbd a82d 623d
00000080: f079 e9bc 2bab 813d c879 4f3d a395 9e3d
00000090: 5ee8 abbd 74c7 a2bd d370 53bd 5289 763d
000000a0: 80ea 70ba 7bb4 0bbd 4744 a5bd a1ad bc3d
000000b0: cc56 eb3c 13e5 55bd 364d adbd b78d dd3c
000000c0: 090b 3f3d f5fa d73b 48e7 a4bd d56d 253d
000000d0: 8944 af3d ae99 a03d 5a5f 83bd a6cd 27bc
000000e0: 76f0 993d 2aea a63d 2290 8b3d 81a2 233d
000000f0: 8b01 9dbc 7aa9 073d 1eb3 963d da86 b7bd
00000100: b067 0d3d fdfa e5bc 735a 8dbd 5d80 9f3d
00000110: 4e0b 60bc afd3 e83b c4d3 243d 917a 7fbd
00000120: eddd 80bc 4bc4 28bd 3209 bcbc 35c1 b6bd
00000130: 3033 68bb 4c13 afbc 98d0 0e3b a813 87bc
00000140: 80fc 1dbc e90d 5fbd 65f4 bfbd 6ceb 2ebd
00000150: e4be b9bd 80fe 7d3d f3b9 b6ba 5627 723d
00000160: 71c6 b6bd dabb bebd 6bc9 8bbd d8d0 8e3d
00000170: e0b8 b4bd 2770 d43b 59c6 e3bc d7fd 14bc
00000180: 48c6 a43c d08f 50bd 01eb 853c 3a7d c73d
00000190: b91d d6bc 4dd0 a6bd 5e65 43bc 58bb 12bd
000001a0: 846f 1e3c 96d7 b53d 23bd 853c 7c5e bebc
000001b0: c8ee 02bd 52ee c8bc dfa8 b0bc 2600 98bd
000001c0: 3963 8dbd 34cf a03d f0d1 96bb ea83 5a3d
000001d0: 54c0 803c 0dc2 0fbd 8037 363c ed7b 62bd
000001e0: c4fe c4bd bada adbd 8f72 6e3d d303 efbc
000001f0: 79c2 813d ad7b 96bd 701f 043d 3a8c 583d
00000200: 2295 3d3d e8bf a43d 1e8a 363d 8232 c7ba
00000210: 9ea1 06bd b179 c73d 3ead b0bd a991 42bd
00000220: 7c7c d6bc 2020 b3bd 9d94 723c 8d12 23bd
00000230: 82e7 af3d e4d7 973d c233 943d 222a 75bd
00000240: 9a69 8d3d 5357 25bd 3d7f c6bd 7da7 fc3c
00000250: 12c9 953c 85f8 493c 523d a1bd 568f bc3c
00000260: 6fe9 9bbd 04db 8d3d 37fd 3a3d 633e 39bc
00000270: b9c6 b1bd 4ac0 4fbd 2649 3f3d 6356 39bd
00000280: d9c9 8a3d c823 b73d 0a20 70bb aeeb 163b
00000290: e8ba 103c 6911 983d 933e 62bd f857 02bd
000002a0: 0938 8bbd bdef 73bd 956f 4f3c 2b48 9fbd
000002b0: 4c2d 96bd 6c5d 633d b61c 95bc 7554 8ebd
000002c0: e635 b2bd 6d8c 99bd 2f1a 5db9 03e5 a1bd
000002d0: 6c7a e23a 713c 07bd 3705 893d 361c 243a
000002e0: ecd8 983d a8c9 f4bc 2979 a3bc 46a8 90bd
000002f0: b492 8e3d 9ade 593d b3ab 8bbc 8a18 99bc
00000300: e063 03bb 923b 373d bb1b 0cbd b924 8f3d
00000310: c634 10bd b10e 7fbd ab06 833d 9338 743d
00000320: f7cf 843d 6361 213d f0f1 b2bd 1e57 08bd
00000330: 99c9 b7bd f86d 003a 6aa3 053b eee5 073d
00000340: e8ca 54bd 943e 893d fb5a 7abd 0b0a b33d
00000350: 1e0b 833d db3c 89bd ca2c 0a3d e6dc b1bd
00000360: 117e b9bd a325 803c e258 68bd 9163 423d
00000370: 685f c5bd 4d39 a53c a1c5 8e3d 1135 c83c
00000380: e287 8e3d b829 1fbd 87c1 30bd f4dc b3bd
00000390: 325b 9dbd 5537 9a3d 9c6a 16bc 5528 943c
000003a0: 90f7 16bd cd8a 29bd 2542 733d 3e85 00bc
000003b0: f345 b5bb a4ad bcbb b7b4 ff3c fed2 bb3c
000003c0: 98bc f43c 7979 5abb 030a 8a3d a45b ae3d
000003d0: ca9f 383d fae1 ab3c 0b36 af3d bf8e 023c
000003e0: 8bb4 89bd ca73 c03d 5908 9f3d 767e 343d
000003f0: 00e4 273d 8e35 243d 119a fdbc 7ae6 25bb
0.06719345 -0.046032898 0.049368426 -0.06878643 -0.068074584 0.0017372764 -0.08470328 -0.03173417
-0.059467547 -0.09243209 0.09086759 -0.024736317 0.07997485 0.056209236 0.08231584 0.044863556
-0.045426153 -0.0054410705 0.008815033 0.0152450735 -0.07556452 0.057182036 0.09397991 -0.027322914
-0.046842944 0.06580224 -0.07012519 0.005589411 -0.0070448467 -0.0906 -0.034285683 0.055219322
-0.028500527 0.06331476 0.05065325 0.07743385 -0.0839393 -0.07948199 -0.05162127 0.060189553
-0.00091902167 -0.034107666 -0.080696635 0.092128046 0.028727911 -0.052220415 -0.084619924 0.027045114
0.046641383 0.0065911957 -0.08051926 0.040387947 0.08557994 0.07841812 -0.06414671 -0.0102419015
0.075165674 0.08150132 0.068146005 0.039949898 -0.019165775 0.03312061 0.07358383 -0.08961268
0.034522712 -0.028073782 -0.069020174 0.07788155 -0.01367457 0.007105313 0.040241018 -0.062372748
-0.015730822 -0.041202825 -0.022953603 -0.0892357 -0.00354309 -0.021371506 0.0021791812 -0.016488865
-0.00964272 -0.054456625 -0.093727864 -0.042704985 -0.090696126 0.06201029 -0.0013940915 0.059119545
-0.089245684 -0.093131736 -0.06825527 0.069734275 -0.088243246 0.006483096 -0.02780454 -0.009093723
0.02011408 -0.0509184 0.01634741 0.09740682 -0.02613722 -0.08145199 -0.011926023 -0.035823196
0.009670142 0.088790104 0.016325539 -0.023238413 -0.031966 -0.024527702 -0.021564899 -0.07421903
-0.06903691 0.07852021 -0.004602663 0.05334846 0.01571671 -0.03509717 0.011121631 -0.055293966
-0.09618905 -0.084889844 0.05821472 -0.029176628 0.06335921 -0.07347808 0.032256544 0.052868105
0.046284802 0.08044416 0.044565313 -0.0015197548 -0.032868974 0.09740008 -0.08626793 -0.047502194
-0.026182406 -0.08746362 0.01480594 -0.039812613 0.085890785 0.07414225 0.072364345 -0.059854634
0.069049075 -0.040366482 -0.096922375 0.030841583 0.018284354 0.012327318 -0.07873024 0.023017567
-0.07612883 0.069265395 0.04565164 -0.011306378 -0.086804815 -0.05072049 0.04670062 -0.0452484
0.06776781 0.089423716 -0.003664019 0.002302866 0.008833624 0.07425196 -0.055235457 -0.031822175
-0.06797797 -0.059554804 0.012660881 -0.07777437 -0.073328584 0.055509016 -0.018202167 -0.06949703
-0.087016866 -0.07497487 -0.00021085957 -0.07905009 0.0017278916 -0.033016626 0.06690448 0.0006260307
0.074632496 -0.029881313 -0.019955235 -0.070633456 0.06961575 0.053190805 -0.017049646 -0.018688459
-0.0020048544 0.044734545 -0.034206133 0.06989426 -0.03520658 -0.06226987 0.06397756 0.059624266
0.06484979 0.039399516 -0.08737552 -0.033286206 -0.089739986 0.0004899199 0.0020391592 0.033178262
-0.05195132 0.06701389 -0.061121922 0.0874215 0.06398605 -0.067010604 0.03373412 -0.08684711
-0.090572484 0.015642947 -0.05672539 0.047458235 -0.09637338 0.020168925 0.069712885 0.024439367
0.06959511 -0.038858145 -0.043153312 -0.08782378 -0.0768341 0.07530085 -0.009180691 0.018085638
-0.036857188 -0.041392136 0.059389252 -0.007844267 -0.0055320202 -0.0057580043 0.031214101 0.022927757
0.029875085 -0.0033336564 0.06740191 0.08513573 0.04507426 0.020981777 0.0855523 0.007968604
-0.06723889 0.09397085 0.07765264 0.044065915 0.040988922 0.040090136 -0.030957254 -0.0025314377

fc1.bias f4 [120]
00000000: e73c 3738 9743 0d3c 0000 0000 a0a7 933b
00000010: 97b1 0c3b 9761 e0b9 4fda aeba edd5 1036
00000020: 510c 063c 8f93 10bb 8b05 fc3b 330b d2ba
00000030: 08ea 203c 7098 4cbb 0b29 3cbb 7c10 a4bb
00000040: aa97 abba 0846 4abb 3743 1bbc 6ce4 0d3b
00000050: 98e2 2d3c 232d ac38 5002 b1b9 c8e2 44b9
00000060: 59ae a0b9 0c11 233c 7c25 0fb9 8714 363c
00000070: 1b2b 8c3b c1e7 6bbb 4f9a 4d3b 03b2 67bb
00000080: bb4a 8e3b 22ab 393b b344 2d3c 65ce 273c
00000090: cf3a 06ba bdbf ee3b 803f 473b 5d78 e53b
000000a0: eea8 64b9 707c 1dba 68e8 583c 09ed 953b
000000b0: adb5 6b3b c92b d33b fafc 31bc 45c6 37bb
000000c0: 870a b23b 61f5 763c 8037 c0ba 1a1d ac3b
000000d0: c090 093c 590f a43a 0613 37b7 2b41 01bc
000000e0: decf d53a 5989 413b 7b51 32bb 5958 93b9
000000f0: 0d54 86bb 7e2a cebb 6498 cf3b ee58 63bb
00000100: 9bf6 4ab9 1160 df3a 6d66 7d3b 9e99 9eba
00000110: 8020 c53b 12f0 9d3b e5a4 2c3b 410f 37bb
00000120: e519 f63b 611e 59bb bb91 5cbb 1ba3 28ba
00000130: ceb9 913b 6510 883c 0000 0000 0000 0000
00000140: 6c97 a9bb fcf7 9e3b bdb3 9138 379d d03b
00000150: 3bef c5ba 0c42 50b7 a6d4 8cbb b68a b03b
00000160: fc83 d23b 9d31 b6ba 0c6c 223c 6f1c 093b
00000170: 2552 183a 25ec 67bb cf56 f53b bd22 183b
00000180: 31e7 19bb 7a95 16bb 5598 893a f253 fb3a
00000190: 8be6 91ba 43e1 25b9 fd61 94ba 2f55 0e3b
000001a0: ec42 4c3b e000 113c 1455 f33b 6630 8439
000001b0: b88f 2fbb 40f5 5fba 6657 73bb 9bff c3b8
000001c0: 0957 903a 89ad 6c39 3bf8 fbba 4f6f 0a3b
000001d0: 8e3d fb39 de3f 6138 00bf 4bba 49df 0c38
4.368732e-05 0.008622072 0.0 0.0045060664 0.0021468156 -0.0004279732 -0.0013340208 2.1582193e-06
0.008181647 -0.0022060608 0.0076910905 -0.0016025066 0.009821422 -0.003121879 -0.0028710987 -0.005006848
-0.0013091464 -0.0030864496 -0.0094764745 0.0021651043 0.010613106 8.2100065e-05 -0.00033761794 -0.00018776499
-0.00030647477 0.009952795 -0.00013651507 0.011113293 0.0042775995 -0.003599629 0.0031372493 -0.0035353906
0.0043424047 0.0028330763 0.010575461 0.010242079 -0.00051204575 0.0072860406 0.003040284 0.007002874
-0.00021806706 -0.00060076173 0.013239004 0.004575376 0.0035966442 0.0064444286 -0.010863537 -0.0028041762
0.005433384 0.015073151 -0.0014664978 0.0052524926 0.0083963275 0.0012516781 -1.0912079e-05 -0.007889072
0.001631256 0.0029531328 -0.002720921 -0.0002810385 -0.004099375 -0.0062916866 0.006335305 -0.0034690457
-0.00019356089 0.001704218 0.0038665787 -0.0012100225 0.006015837 0.0048198784 0.0026343402 -0.0027932676
0.007510411 -0.003312968 -0.0033656198 -0.0006432996 0.0044471985 0.01660938 0.0 0.0
-0.0051755216 0.0048513394 6.947618e-05 0.0063663977 -0.0015101203 -1.2413144e-05 -0.0042978106 0.0053876294
0.006424425 -0.0013900284 0.009913456 0.0020921489 0.00058105803 -0.0035388556 0.007487155 0.0023214065
-0.0023483748 -0.0022977279 0.0010497669 0.0019174798 -0.0011131329 -0.00015819543 -0.0011320707 0.0021718254
0.0031167818 0.008850306 0.0074259136 0.00025213062 -0.0026788544 -0.000854332 -0.003713095 -9.345935e-05
0.0011012267 0.00022571361 -0.0019223759 0.0021123474 0.00047920312 5.370366e-05 -0.00077722967 3.358655e-05

fc2.weight f4 [84, 120]
00000000: 23d3 c53c 17bd 15bd fc67 63bd 157f 383e
00000010: dc79 023e 2ead 243e 530a 0abd 54a2 83bd
00000020: 4232 43bd 05a8 823d e73b ad3d b989 f7bd
00000030: c62f dd3d e382 0f3e 1b1c 853d f617 03be
00000040: 7d6a c63d a920 e53d f705 b33c 7c71 8cbd
00000050: 7554 003c 2c2c 9b3d 8bfb 333d 544c d83d
00000060: 4bb3 29be a658 893d df3a 26be 1c4e 10be
00000070: 2f1e 653d 112e ba38 8764 acbc f259 d1bd
00000080: 5026 813d c915 173e 36b7 6f3c 2b92 39be
00000090: d503 1fbd 883b 7d3c 9daa a4bc a32f 26be
000000a0: ceb2 f1bd 4996 dbbd 6a1a 0f3e 96b6 873d
000000b0: 58fe cbbd 972d 9bbd bb3d 12bd 67fd a0bc
000000c0: 41a5 a83c 31d3 82bd 05f3 2c3c c0b7 403d
000000d0: 42a9 2ebd 04d8 173e 248b 283d d53c d4bc
000000e0: d4cc ff3c f7b4 7b3d c012 763d 00eb 40bb
000000f0: b8f5 fabd e2d7 cd3d 44af 9e3d 2b44 d23d
00000100: a79c ee3d f0ae a3bd 285f 00bd 5254 d53d
00000110: f0d6 373d 0081 0f3e 1ef1 d93d 18f1 033e
00000120: c8f6 48bc dac6 143e 3d47 903d 6c35 9bbd
00000130: fc87 033e 506b 09bd e465 7f3d 00a3 943c
00000140: 1686 2bbd 8f1c 483d e8b4 e0bd 3466 633d
00000150: 2886 7a3d 2a37 9a3d 0a21 d8bd 5014 623d
00000160: 34c0 233e 4d8b 263d 3ec1 1abe 4f69 b3bc
00000170: 4918 083d 0642 2b3e 8d26 3bbe a6fe b33d
00000180: 8a29 873c 8393 00be 4954 96bd 00bf 923d
00000190: 8026 c13d cc9f e8bd 3eae 02bd 6400 c7bd
000001a0: 1925 00bc 6481 0abe c6e8 853d 3af3 f3bc
000001b0: 7b0b 85bd b177 0b3e 07ed 1dbe ef78 b2bd
000001c0: a847 49bb 73ff fd3c 35b6 503c 1cb4 ed3d
000001d0: 1085 153e db7f 183e fbaf 1f3c 4d04 223e
000001e0: 0090 99b8 68f5 d63d 46fb be3d 2475 20be
000001f0: 95bb bebd 67ba 08bd fef9 cfbc 5a3f c9bc
00000200: d5bf 80bd 527e 6c3c ac68 253e fef5 edbd
00000210: 565d bf3c 75f1 febd fda9 a8bd 2537 a9bd
00000220: e68e ee3d 5d0e 94bc d584 083e 0ae3 1cbe
00000230: 55fd 403e dca5 cabc ed1f 64bd 24eb 1b3e
00000240: 1775 173d d8d7 193e 8f93 e33b af2d 4a3e
00000250: dcbc 5a3d 75df bebd 39b1 a33d 43e6 263e
00000260: 93ef c5bd c2cb 55bc 1973 fdbb 1ea4 98bd
00000270: aa42 36bd 9019 cd3d 1263 b5bb 728e 0abe
00000280: 9645 26be fd22 f9bd 4bc9 163c 5ec5 a93d
00000290: 1752 ebbd 47e5 e9bd e8c9 f63d 9c34 a8bc
000002a0: fb54 223e 67a0 593d 3f26 02be 8322 133e
000002b0: da91 063e 1a9f e13c 037a 9ebd 9f6d 98bd
000002c0: 7b09 19bd 2aac 58bd b9e9 1ebe cd9b 9c3d
000002d0: 33d6 343d c5f6 043e 458c 8ebd 0352 043e
000002e0: e2fe 1d3e 6812 163b e924 b43d 2e6d 703d
000002f0: d2a7 013d f66a 80bc abc2 2abd 7386 4d3d
00000300: 74a9 f83d 05bd edbd 51fa 56bd ff03 04be
00000310: 42f4 51bd f354 e8ba 7aac c6bd 0a0f b63d
00000320: aa61 b33d cef3 8cbd 4dac f7bd 9d82 60bd
00000330: a205 f33d 46f3 c03d 286d 2abd 5df6 30be
00000340: 0268 b23d 0c50 30bc c7e4 603d b518 9ebd
00000350: 27bb 02bd 9b80 463d 515d b93d 9ade 2a3e
00000360: cabd b5bc 6f6e 09be 906e 50bd 9286 813d
00000370: a67c 0abe b0ac 01be 55c2 11be b1fc e8bd
00000380: 0818 bc3d 3ed6 39be e9c8 f63d 4fcc fd3d
00000390: 5328 263d ab50 06be caae f43d 1eb2 16be
000003a0: a9c7 15be f267 b1bd ccce b13b 8dc3 883d
000003b0: de54 a4bd 6903 fe3d 4332 293e 8da8 073e
000003c0: 9b18 14bd 44ae 843d 55ca 143e c974 423e
000003d0: a1c5 193e f95b 943d 1bb8 903d f684 e0bd
000003e0: dc7d 223e f743 ca3c 9c5e dfbd 1cd8 d53b
000003f0: 51de 2bbe fead ea3d fa1b 1cbb d653 d8bd
0.02414853 -0.036557283 -0.05551909 0.18017228 0.12741798 0.16081688 -0.033701252 -0.06427446
-0.04765535 0.063797034 0.08458691 -0.120868154 0.10800128 0.14014773 0.06499501 -0.12802109
0.0968828 0.1118787 0.02185343 -0.06857583 0.007832636 0.075767845 0.043941062 0.105614334
-0.16572301 0.067063615 -0.16233395 -0.14092296 0.05593699 8.877752e-05 -0.021044029 -0.10222234
0.06306136 0.14754404 0.014631083 -0.18122165 -0.038822014 0.015456088 -0.020100886 -0.1622911
-0.118016824 -0.10722024 0.1397492 0.066266224 -0.099606216 -0.07577055 -0.035703402 -0.019652082
0.020586612 -0.06387938 0.010555987 0.047050238 -0.042641886 0.14828497 0.04114832 -0.025907913
0.0312256 0.06145188 0.060076475 -0.0029436946 -0.122538984 0.10050942 0.07748273 0.10266908
0.11650973 -0.07992351 -0.031340748 0.104164734 0.044882715 0.14014053 0.106416926 0.12884939
-0.0122658685 0.14528981 0.070448376 -0.07578549 0.12844843 -0.033549607 0.06235303 0.01814413
-0.04187592 0.04885536 -0.10972005 0.05551739 0.061163098 0.07530053 -0.10553177 0.055195153
0.15991288 0.04066019 -0.15112779 -0.021900801 0.033226285 0.16724405 -0.18276425 0.08788805
0.0164993 -0.12556271 -0.07340295 0.071653366 0.094311714 -0.11358604 -0.03190445 -0.097168714
-0.007821345 -0.13525921 0.06538539 -0.029779065 -0.0649633 0.13619877 -0.1542245 -0.087144725
-0.0030712876 0.031005597 0.012738754 0.11606619 0.1460154 0.14892523 0.009746547 0.15821953
-7.3224306e-05 0.10496026 0.0932527 -0.15669686 -0.09313122 -0.033380892 -0.02538776 -0.024566341
-0.06286589 0.014434414 0.1615321 -0.11619185 0.023359936 -0.12448398 -0.08235548 -0.08262471
0.116483495 -0.018073255 0.13331921 -0.15320984 0.18846639 -0.024737291 -0.05569451 0.15226418
0.0369769 0.15023744 0.0069450806 0.1974399 0.053402767 -0.09319965 0.07992787 0.16298775
-0.09664836 -0.013049068 -0.007734668 -0.07453178 -0.04449717 0.10014641 -0.0055354917 -0.13530901
-0.16237482 -0.121648766 0.009203265 0.08289598 -0.11490267 -0.11420684 0.12050229 -0.020532899
0.1585273 0.053131487 -0.12709902 0.14368634 0.13141575 0.027541686 -0.07738116 -0.074427836
-0.037362557 -0.052898563 -0.15518846 0.07646904 0.04414959 0.1298476 -0.06960348 0.1292191
0.15429261 0.0022899155 0.087961026 0.058697872 0.031654187 -0.015676003 -0.041689556 0.05017705
0.121416956 -0.11608318 -0.052484814 -0.1289215 -0.051258333 -0.0017725512 -0.09700866 0.08889587
0.08758862 -0.068824396 -0.12093411 -0.054812063 0.11866309 0.09421401 -0.041608006 -0.1728148
0.08711244 -0.010761272 0.05490568 -0.07719556 -0.031916764 0.04846249 0.09051002 0.16686478
-0.022185225 -0.13421033 -0.05088669 0.063244954 -0.13524112 -0.12663531 -0.14234288 -0.11376322
0.09184271 -0.18148133 0.12050039 0.123924844 0.0405658 -0.1311671 0.11947401 -0.14716384
-0.14626946 -0.08662404 0.0054262634 0.06677923 -0.08024 0.12402994 0.1652308 0.13247891
-0.036156278 0.06478551 0.14530309 0.18989863 0.15016796 0.07244105 0.07066365 -0.1096286
0.15868324 0.024690611 -0.10906717 0.0065260064 -0.16784026 0.114589676 -0.0023820386 -0.105628654

fc2.bias f4 [84]
00000000: 304c c0bc 3edb 0d3d 3a5f b6bb a664 28bb
00000010: 7732 25bc b470 fb3b a433 f73c 0b93 60b7
00000020: 059d 03bc 1211 5d3c 850b a7ba 2032 bf3a
00000030: 7341 84bc a25e 8a3b badb 3f39 20f6 59bc
00000040: fc19 2db9 5c4f 45bb 8434 803b e29d babc
00000050: 3939 c2b9 8ccb 8d39 237a a3ba 575e 1a3c
00000060: 7801 a63c 2b72 f23c b94f 793c 5ea6 633a
00000070: 326c 723c 1b3e ccba 2e95 f4ba d828 8abc
00000080: 2032 833c 8982 753b a941 8c3b 56a1 143c
00000090: 2d45 a73a 4b38 1fbc 93a0 edbb e015 4cbc
000000a0: 806e 9f3a b475 cb3c bd95 87bb 8136 8abc
000000b0: 6fb3 e33c 0000 0000 67e9 263c 2ddd db3a
000000c0: 102b 0e3c 4b54 833a 778a c7bb 9dab 8a3c
000000d0: 6fc4 11b7 f2de cbb9 4eec a639 67c7 8bb8
000000e0: 664c e0ba e308 bc3b c814 9d38 0202 78ba
000000f0: 7af6 93bb 7287 f937 f485 a339 a67e 7ebb
00000100: 7c00 c8bb 74df 98ba 7463 0b38 0cc1 7a3b
00000110: 0ed1 9b36 1d95 92bb ff74 b63c e01a 3fba
00000120: dfc0 7c3c eafd c83c 1e80 8b3c 66db 6fb9
00000130: 36f0 c93c 7602 ed3b 31d1 c93c 5724 87bc
00000140: f007 343b 376f 833c cd7e 1fbb 09cd c7bb
-0.023473829 0.034632914 -0.005565551 -0.0025694757 -0.010082833 0.0076733474 0.030175991 -1.33856765e-05
-0.008033042 0.013492839 -0.0012744522 0.0014587082 -0.01614449 0.004222707 0.00018297034 -0.01330331
-0.00016508246 -0.0030107116 0.0039125104 -0.022780363 -0.00037045198 0.0002704527 -0.0012472313 0.009421906
0.020264372 0.029595455 0.015216761 0.00086841534 0.014796304 -0.0015582474 -0.0018660182 -0.016865179
0.016015112 0.0037461838 0.0042802882 0.009071669 0.0012761705 -0.009718011 -0.007251808 -0.012456387
0.0012163669 0.024836399 -0.0041377232 -0.016871693 0.027795522 0.0 0.010187483 0.001677429
0.008677259 0.0010019628 -0.0060895043 0.016927535 -8.688409e-06 -0.00038885284 0.00031838048 -6.665178e-05
-0.0017112612 0.005738364 7.490214e-05 -0.00094607484 -0.0045154663 2.9746185e-05 0.00031189586 -0.0038832813
-0.0061035734 -0.0011663274 3.3232805e-05 0.0038262038 4.643697e-06 -0.004473342 0.022272585 -0.00072900765
0.015426843 0.024535138 0.017028864 -0.00022874548 0.024650674 0.0072329594 0.024635883 -0.01649682
0.0027470551 0.016044242 -0.0024337054 -0.00609744

fc3.weight f4 [10, 84]
00000000: 25a1 073d 4900 163c 958d 753e 28a9 23bd
00000010: 8725 b43d 6eae 9dbc e272 95be 33b1 49be
00000020: 1d14 70bd bc13 aebd 9581 68be 24fd 41be
00000030: 3858 66bb 7248 85be 1e2c 323d 39f8 ca3d
00000040: 0261 59bd b828 16be a650 2e3e 184a fd3d
00000050: cd56 30be 82e0 9a3d 85c7 4f3e 6722 87be
00000060: ca1b 753e e41e 433e e6fc 0c3d 390e 863e
00000070: 6352 59be 1aaf dd3d c894 26be 2d82 21bd
00000080: df49 8dbd fb2c aa3d 36dd cebd 636a 93bd
00000090: a648 943d df37 24bd 08e2 303e fc4c 2ebe
000000a0: 5d2d 7ebe c05d 32be e6c5 6a3e 2220 19be
000000b0: f52d 40bc 98b8 e0bc d5b2 2a3e 4b93 1abe
000000c0: 890a ccbd 2035 70be b192 753e c59e 8c3e
000000d0: 40a3 68be 8343 84bd 5cc4 a6bc b8c9 fd3d
000000e0: 363f 82be 36c9 493e 7725 29be 5c62 e8bd
000000f0: 97dd 33be cd26 983d 8620 483e 433f 4b3e
00000100: 1dc2 863e 8131 043e 2d2e 35bd 3308 3cbe
00000110: 9d15 39bc f412 923d 6ed9 e33d 619f f3bd
00000120: c19a d8bd 1686 aebd 9877 843d 1d3f efbb
00000130: 7d54 05be 3334 c73d 56b0 583e 4320 e93d
00000140: ab7d 363d d224 18bd ad89 523e a93a d93d
00000150: 8feb c7bc c37e 923e fd63 08be e85d 863e
00000160: 642e 10be 8b98 9ebd 25d9 37be 8539 4abe
00000170: 0303 fe3d ab90 073e f34a f8bd f1cb 773d
00000180: a0af 40be eb6d 533e 2d67 57be 02c0 db3d
00000190: 0d55 143e cb29 89be 7906 f9bd 60f3 6cbd
000001a0: 4864 b33d 707f 52bd 7c4b 3cbc 75cc afbc
000001b0: 9f9d 2a3d 0891 2e3e 0fc8 973e 5c92 57be
000001c0: 2f78 c5bd e3cb ed3d ac28 02bd 9ca1 edbc
000001d0: 8f0d f2bd bedb 3b3e 5476 d43d b854 40be
000001e0: b92b 67bd d3d0 c93d 3eb5 69be 60b1 9c3d
000001f0: a456 c0bd 8bd9 6b3c 20b4 8a3d 05b9 c3bd
00000200: e96e 063e 982a dabd 9e9e f03d 1b7a 32bd
00000210: 0dea 02bd 91d5 c6bd 3319 633e a979 2abe
00000220: b7ae ebbc 0d06 063d f21f 583e 671f 6dbc
00000230: 43e2 be3c 0912 f4bd 7d87 543d 44c3 363d
00000240: 95bb 1ebe becd d13d 1735 6fbc edac 1bbe
00000250: 61a7 99be 59b6 313e eb44 c53c 50da 89be
00000260: 3d2c 52bd ab4d 673e 3a8a 8a3e ce71 383e
00000270: e39a 70be 985b ba3e cf58 36be 1ca1 85bd
00000280: 9da2 5d3d a223 c5bd dd60 46bc c174 1c3e
00000290: 3d71 4e3e 3338 793e faa9 30bd 63e6 c23d
000002a0: fcdd 8cbb 45f3 c43d 6e38 1cbe abe2 10be
000002b0: 6bf6 503e 80c6 60bd 4cdd b8bd 045f 1ebe
000002c0: 8aac e83d 6c2e a2bc 271c 10be d79f f43d
000002d0: 32db 3f3e a157 443e ef66 783d f670 4bbe
000002e0: e105 a6bd b228 1c3e c60f ed3d c5c2 72be
000002f0: 0494 68be de3f 1e3e a762 37bd b2f4 e73a
00000300: 8f0e 273e 7b90 933e c185 5a3e 0cf6 62be
00000310: 2d3b c3bd 373d 94be 4cd2 b9bc 43bf cbbd
00000320: 2f10 513e 4508 233e c2c3 5e3e c645 343e
00000330: 2823 5ebe d9c3 96bc a818 afbd cb0b e9bd
00000340: b3b4 093e fcbc 473e 099b 40be d985 363e
00000350: b3b3 053e 8244 77be 4464 3d3e 2ce8 43bd
00000360: 883a d7bd 689a 143e 4c70 89be 658e 653e
00000370: f648 f33d 882a 4c3e 482e 1a3c 32d4 b0bc
00000380: 8da6 413d e7cf 913e 9a5d 553d c18e 6fbe
00000390: a534 7dbe ea2c e5bd d8db 35bd 767b adbd
000003a0: 43be bfbd 7766 ca3d d139 483e 4d08 8bbb
000003b0: ba8c b53c 1d78 0dbd 9df9 5ebe 34ef 7fbe
000003c0: 0521 8abe d983 2d3e 3892 b0bd 9c53 ac3d
000003d0: 0d07 83bd 3aea fdbd d497 aa3e ef8a 533c
000003e0: fecd 943e 453b 69bd 0df3 67be c12f 14be
000003f0: 1dbf f0bd 0693 4f3e 7e41 6cbe 6f13 083c
0.033112664 0.009155341 0.2397979 -0.03995624 0.0879622 -0.019248214 -0.2918921 -0.19696502
-0.05861293 -0.08499858 -0.22705682 -0.18944222 -0.0035147797 -0.26031834 0.043499105 0.09910626
-0.05307103 -0.1466397 0.17022952 0.12367648 -0.17220612 0.07562353 0.20290954 -0.26393434
0.23936382 0.19054753 0.03442087 0.26182726 -0.21222834 0.108244136 -0.16267693 -0.039430786
-0.068988554 0.083093606 -0.101007864 -0.07198026 0.07240419 -0.040092345 0.17273724 -0.17021555
-0.24821992 -0.17418575 0.22927055 -0.14953664 -0.011729707 -0.027431771 0.16669782 -0.1509525
-0.09962947 -0.23457766 0.2398174 0.27464882 -0.22718525 -0.06458189 -0.020357303 0.123919904
-0.2543885 0.19705662 -0.16518198 -0.113468856 -0.17564999 0.07429276 0.19543657 0.19848351
0.26319972 0.12909509 -0.04423349 -0.18362503 -0.011296657 0.07132521 0.11125456 -0.118956335
-0.10576392 -0.085216686 0.06468123 -0.007301225 -0.13020511 0.09726753 0.21161017 0.113831066
0.04455344 -0.03714449 0.20560332 0.10606892 -0.024404315 0.28612337 -0.13319393 0.2624352
-0.14080197 -0.07743939 -0.17953928 -0.19748504 0.12402918 0.1323878 -0.121236704 0.060497228
-0.18816996 0.20647399 -0.21035452 0.10729982 0.1448557 -0.26789698 -0.12159438 -0.057849288
0.087593615 -0.051391065 -0.011492606 -0.021459797 0.041654225 0.17047513 0.2964482 -0.21051925
-0.09642064 0.11611154 -0.03177707 -0.029007725 -0.11818992 0.18345544 0.10374132 -0.18782318
-0.05643818 0.09854283 -0.22823045 0.07651019 -0.093915254 0.014395128 0.06772637 -0.09556774
0.13128246 -0.10652655 0.11749004 -0.04357348 -0.03196149 -0.09708703 0.22177581 -0.16647972
-0.028769834 0.032720614 0.21105936 -0.014472819 0.02330125 -0.119175024 0.051887024 0.044619814
-0.15501244 0.1024432 -0.01460006 -0.15202685 -0.30010512 0.17354716 0.024080714 -0.26924372
-0.05131172 0.22588222 0.27058583 0.18012163 -0.23496585 0.36398005 -0.17807315 -0.0652487
0.05411016 -0.09625937 -0.012108055 0.15278913 0.20160384 0.24337845 -0.043130852 0.09516599
-0.0042989235 0.096167125 -0.15255901 -0.14148967 0.20406501 -0.054876804 -0.09026584 -0.15465933
0.11361034 -0.019797526 -0.1407324 0.119445495 0.1873596 0.19174053 0.06064504 -0.1986731
-0.0810659 0.15249899 0.11575274 -0.23707111 -0.22712713 0.15454051 -0.044771817 0.0017696826
0.16314147 0.28821167 0.21340086 -0.22164172 -0.09532771 -0.28952953 -0.022683285 -0.0994859
0.2041633 0.15921123 0.21754363 0.17604741 -0.21693099 -0.018403934 -0.08549625 -0.113792025
0.13447838 0.19505686 -0.18809141 0.17824496 0.13056831 -0.24147227 0.1849528 -0.04782884
-0.10509211 0.14512026 -0.26843488 0.224176 0.118791506 0.199381 0.009410448 -0.021585558
0.047277976 0.2847893 0.05209122 -0.233943 -0.24727114 -0.11190207 -0.044399112 -0.08470814
-0.093624614 0.09882825 0.19553305 -0.004242933 0.02216183 -0.034538377 -0.21774907 -0.24993593
-0.26978317 0.16944827 -0.08621639 0.08414385 -0.06397829 -0.12398191 0.3331896 0.012911542
0.2906341 -0.05694129 -0.2265131 -0.14471342 -0.11755202 0.20270929 -0.23071858 0.008305415

fc3.bias f4 [10]
00000000: d3a6 03bd 302e 7b3b ad62 f63c e934 c23d
00000010: 7a4c 2fbd f86c 453c 636b 00bd bd1f 56bc
00000020: a6ff 2d3c b642 03bd
-0.032141518 0.003832709 0.03007635 0.09482748 -0.042797543 0.012049906 -0.031352412 -0.01306909
0.010620033 -0.032046042
